=====================================================================================================================================================================
Layer (type (var_name):depth-idx)                                 Input Shape               Output Shape              Param #                   Kernel Shape
=====================================================================================================================================================================
AttackAndEvaluationWrapper (AttackAndEvaluationWrapper)           [32, 3, 256, 256]         [32, 3, 256, 256]         --                        --
├─UNetDenoiseAttack (unet): 1-1                                   [32, 3, 256, 256]         [32, 3, 256, 256]         --                        --
│    └─DoubleConv (inc): 2-1                                      [32, 3, 256, 256]         [32, 16, 256, 256]        --                        --
│    │    └─Sequential (conv): 3-1                                [32, 3, 256, 256]         [32, 16, 256, 256]        --                        --
│    │    │    └─Conv2d (0): 4-1                                  [32, 3, 256, 256]         [32, 16, 256, 256]        432                       [3, 3]
│    │    │    └─BatchNorm2d (1): 4-2                             [32, 16, 256, 256]        [32, 16, 256, 256]        32                        --
│    │    │    └─ReLU (2): 4-3                                    [32, 16, 256, 256]        [32, 16, 256, 256]        --                        --
│    │    │    └─Conv2d (3): 4-4                                  [32, 16, 256, 256]        [32, 16, 256, 256]        2,304                     [3, 3]
│    │    │    └─BatchNorm2d (4): 4-5                             [32, 16, 256, 256]        [32, 16, 256, 256]        32                        --
│    │    │    └─ReLU (5): 4-6                                    [32, 16, 256, 256]        [32, 16, 256, 256]        --                        --
│    └─Sequential (down1): 2-2                                    [32, 16, 256, 256]        [32, 32, 128, 128]        --                        --
│    │    └─MaxPool2d (0): 3-2                                    [32, 16, 256, 256]        [32, 16, 128, 128]        --                        2
│    │    └─DoubleConv (1): 3-3                                   [32, 16, 128, 128]        [32, 32, 128, 128]        --                        --
│    │    │    └─Sequential (conv): 4-7                           [32, 16, 128, 128]        [32, 32, 128, 128]        13,952                    --
│    └─Sequential (down2): 2-3                                    [32, 32, 128, 128]        [32, 64, 64, 64]          --                        --
│    │    └─MaxPool2d (0): 3-4                                    [32, 32, 128, 128]        [32, 32, 64, 64]          --                        2
│    │    └─DoubleConv (1): 3-5                                   [32, 32, 64, 64]          [32, 64, 64, 64]          --                        --
│    │    │    └─Sequential (conv): 4-8                           [32, 32, 64, 64]          [32, 64, 64, 64]          55,552                    --
│    └─Sequential (down3): 2-4                                    [32, 64, 64, 64]          [32, 128, 32, 32]         --                        --
│    │    └─MaxPool2d (0): 3-6                                    [32, 64, 64, 64]          [32, 64, 32, 32]          --                        2
│    │    └─DoubleConv (1): 3-7                                   [32, 64, 32, 32]          [32, 128, 32, 32]         --                        --
│    │    │    └─Sequential (conv): 4-9                           [32, 64, 32, 32]          [32, 128, 32, 32]         221,696                   --
│    └─Sequential (down4): 2-5                                    [32, 128, 32, 32]         [32, 256, 16, 16]         --                        --
│    │    └─MaxPool2d (0): 3-8                                    [32, 128, 32, 32]         [32, 128, 16, 16]         --                        2
│    │    └─DoubleConv (1): 3-9                                   [32, 128, 16, 16]         [32, 256, 16, 16]         --                        --
│    │    │    └─Sequential (conv): 4-10                          [32, 128, 16, 16]         [32, 256, 16, 16]         885,760                   --
│    └─Sequential (bottleneck): 2-6                               [32, 256, 16, 16]         [32, 512, 8, 8]           --                        --
│    │    └─MaxPool2d (0): 3-10                                   [32, 256, 16, 16]         [32, 256, 8, 8]           --                        2
│    │    └─DoubleConv (1): 3-11                                  [32, 256, 8, 8]           [32, 512, 8, 8]           --                        --
│    │    │    └─Sequential (conv): 4-11                          [32, 256, 8, 8]           [32, 512, 8, 8]           3,540,992                 --
│    └─ConvTranspose2d (up1): 2-7                                 [32, 512, 8, 8]           [32, 256, 16, 16]         524,544                   [2, 2]
│    └─DoubleConv (conv_up1): 2-8                                 [32, 512, 16, 16]         [32, 256, 16, 16]         --                        --
│    │    └─Sequential (conv): 3-12                               [32, 512, 16, 16]         [32, 256, 16, 16]         --                        --
│    │    │    └─Conv2d (0): 4-12                                 [32, 512, 16, 16]         [32, 256, 16, 16]         1,179,648                 [3, 3]
│    │    │    └─BatchNorm2d (1): 4-13                            [32, 256, 16, 16]         [32, 256, 16, 16]         512                       --
│    │    │    └─ReLU (2): 4-14                                   [32, 256, 16, 16]         [32, 256, 16, 16]         --                        --
│    │    │    └─Conv2d (3): 4-15                                 [32, 256, 16, 16]         [32, 256, 16, 16]         589,824                   [3, 3]
│    │    │    └─BatchNorm2d (4): 4-16                            [32, 256, 16, 16]         [32, 256, 16, 16]         512                       --
│    │    │    └─ReLU (5): 4-17                                   [32, 256, 16, 16]         [32, 256, 16, 16]         --                        --
│    └─ConvTranspose2d (up2): 2-9                                 [32, 256, 16, 16]         [32, 128, 32, 32]         131,200                   [2, 2]
│    └─DoubleConv (conv_up2): 2-10                                [32, 256, 32, 32]         [32, 128, 32, 32]         --                        --
│    │    └─Sequential (conv): 3-13                               [32, 256, 32, 32]         [32, 128, 32, 32]         --                        --
│    │    │    └─Conv2d (0): 4-18                                 [32, 256, 32, 32]         [32, 128, 32, 32]         294,912                   [3, 3]
│    │    │    └─BatchNorm2d (1): 4-19                            [32, 128, 32, 32]         [32, 128, 32, 32]         256                       --
│    │    │    └─ReLU (2): 4-20                                   [32, 128, 32, 32]         [32, 128, 32, 32]         --                        --
│    │    │    └─Conv2d (3): 4-21                                 [32, 128, 32, 32]         [32, 128, 32, 32]         147,456                   [3, 3]
│    │    │    └─BatchNorm2d (4): 4-22                            [32, 128, 32, 32]         [32, 128, 32, 32]         256                       --
│    │    │    └─ReLU (5): 4-23                                   [32, 128, 32, 32]         [32, 128, 32, 32]         --                        --
│    └─ConvTranspose2d (up3): 2-11                                [32, 128, 32, 32]         [32, 64, 64, 64]          32,832                    [2, 2]
│    └─DoubleConv (conv_up3): 2-12                                [32, 128, 64, 64]         [32, 64, 64, 64]          --                        --
│    │    └─Sequential (conv): 3-14                               [32, 128, 64, 64]         [32, 64, 64, 64]          --                        --
│    │    │    └─Conv2d (0): 4-24                                 [32, 128, 64, 64]         [32, 64, 64, 64]          73,728                    [3, 3]
│    │    │    └─BatchNorm2d (1): 4-25                            [32, 64, 64, 64]          [32, 64, 64, 64]          128                       --
│    │    │    └─ReLU (2): 4-26                                   [32, 64, 64, 64]          [32, 64, 64, 64]          --                        --
│    │    │    └─Conv2d (3): 4-27                                 [32, 64, 64, 64]          [32, 64, 64, 64]          36,864                    [3, 3]
│    │    │    └─BatchNorm2d (4): 4-28                            [32, 64, 64, 64]          [32, 64, 64, 64]          128                       --
│    │    │    └─ReLU (5): 4-29                                   [32, 64, 64, 64]          [32, 64, 64, 64]          --                        --
│    └─ConvTranspose2d (up4): 2-13                                [32, 64, 64, 64]          [32, 32, 128, 128]        8,224                     [2, 2]
│    └─DoubleConv (conv_up4): 2-14                                [32, 64, 128, 128]        [32, 32, 128, 128]        --                        --
│    │    └─Sequential (conv): 3-15                               [32, 64, 128, 128]        [32, 32, 128, 128]        --                        --
│    │    │    └─Conv2d (0): 4-30                                 [32, 64, 128, 128]        [32, 32, 128, 128]        18,432                    [3, 3]
│    │    │    └─BatchNorm2d (1): 4-31                            [32, 32, 128, 128]        [32, 32, 128, 128]        64                        --
│    │    │    └─ReLU (2): 4-32                                   [32, 32, 128, 128]        [32, 32, 128, 128]        --                        --
│    │    │    └─Conv2d (3): 4-33                                 [32, 32, 128, 128]        [32, 32, 128, 128]        9,216                     [3, 3]
│    │    │    └─BatchNorm2d (4): 4-34                            [32, 32, 128, 128]        [32, 32, 128, 128]        64                        --
│    │    │    └─ReLU (5): 4-35                                   [32, 32, 128, 128]        [32, 32, 128, 128]        --                        --
│    └─ConvTranspose2d (up5): 2-15                                [32, 32, 128, 128]        [32, 16, 256, 256]        2,064                     [2, 2]
│    └─DoubleConv (conv_up5): 2-16                                [32, 32, 256, 256]        [32, 16, 256, 256]        --                        --
│    │    └─Sequential (conv): 3-16                               [32, 32, 256, 256]        [32, 16, 256, 256]        --                        --
│    │    │    └─Conv2d (0): 4-36                                 [32, 32, 256, 256]        [32, 16, 256, 256]        4,608                     [3, 3]
│    │    │    └─BatchNorm2d (1): 4-37                            [32, 16, 256, 256]        [32, 16, 256, 256]        32                        --
│    │    │    └─ReLU (2): 4-38                                   [32, 16, 256, 256]        [32, 16, 256, 256]        --                        --
│    │    │    └─Conv2d (3): 4-39                                 [32, 16, 256, 256]        [32, 16, 256, 256]        2,304                     [3, 3]
│    │    │    └─BatchNorm2d (4): 4-40                            [32, 16, 256, 256]        [32, 16, 256, 256]        32                        --
│    │    │    └─ReLU (5): 4-41                                   [32, 16, 256, 256]        [32, 16, 256, 256]        --                        --
│    └─Conv2d (outc): 2-17                                        [32, 16, 256, 256]        [32, 3, 256, 256]         51                        [1, 1]
├─Videoseal (detector): 1-2                                       --                        --                        43,805,388                --
│    └─ConvnextExtractor (detector): 2-18                         [32, 3, 256, 256]         [32, 257]                 --                        --
│    │    └─ConvNeXtV2 (convnext): 3-17                           [32, 3, 256, 256]         [32, 768, 8, 8]           --                        --
│    │    │    └─ModuleList (downsample_layers): 4-48             --                        --                        (recursive)               --
│    │    │    └─ModuleList (stages): 4-49                        --                        --                        (recursive)               --
│    │    │    └─ModuleList (downsample_layers): 4-48             --                        --                        (recursive)               --
…
